{"architecture":{"class_name":"Functional","config":{"name":"functional_1","trainable":true,"layers":[{"module":"keras.layers","class_name":"InputLayer","config":{"batch_input_shape":[null,8],"dtype":"float32","sparse":false,"ragged":false,"name":"input_1"},"registered_name":null,"name":"input_1","inbound_nodes":[]},{"module":"keras.layers","class_name":"Dense","config":{"name":"dense","trainable":true,"dtype":"float32","units":30,"activation":"elu","use_bias":true,"kernel_initializer":{"module":"keras.initializers","class_name":"GlorotUniform","config":{"seed":null},"registered_name":null},"bias_initializer":{"module":"keras.initializers","class_name":"Zeros","config":{},"registered_name":null},"kernel_regularizer":null,"bias_regularizer":null,"activity_regularizer":null,"kernel_constraint":null,"bias_constraint":null},"registered_name":null,"build_config":{"input_shape":[null,8]},"name":"dense","inbound_nodes":[[["input_1",0,0,{}]]]},{"module":"keras.layers","class_name":"Dense","config":{"name":"dense_1","trainable":true,"dtype":"float32","units":30,"activation":"elu","use_bias":true,"kernel_initializer":{"module":"keras.initializers","class_name":"GlorotUniform","config":{"seed":null},"registered_name":null},"bias_initializer":{"module":"keras.initializers","class_name":"Zeros","config":{},"registered_name":null},"kernel_regularizer":null,"bias_regularizer":null,"activity_regularizer":null,"kernel_constraint":null,"bias_constraint":null},"registered_name":null,"build_config":{"input_shape":[null,30]},"name":"dense_1","inbound_nodes":[[["dense",0,0,{}]]]},{"module":"keras.layers","class_name":"Dense","config":{"name":"dense_2","trainable":true,"dtype":"float32","units":30,"activation":"elu","use_bias":true,"kernel_initializer":{"module":"keras.initializers","class_name":"GlorotUniform","config":{"seed":null},"registered_name":null},"bias_initializer":{"module":"keras.initializers","class_name":"Zeros","config":{},"registered_name":null},"kernel_regularizer":null,"bias_regularizer":null,"activity_regularizer":null,"kernel_constraint":null,"bias_constraint":null},"registered_name":null,"build_config":{"input_shape":[null,30]},"name":"dense_2","inbound_nodes":[[["dense_1",0,0,{}]]]},{"module":"keras.layers","class_name":"Dense","config":{"name":"class","trainable":true,"dtype":"float32","units":1,"activation":"sigmoid","use_bias":true,"kernel_initializer":{"module":"keras.initializers","class_name":"GlorotUniform","config":{"seed":null},"registered_name":null},"bias_initializer":{"module":"keras.initializers","class_name":"Zeros","config":{},"registered_name":null},"kernel_regularizer":null,"bias_regularizer":null,"activity_regularizer":null,"kernel_constraint":null,"bias_constraint":null},"registered_name":null,"build_config":{"input_shape":[null,30]},"name":"class","inbound_nodes":[[["dense_2",0,0,{}]]]}],"input_layers":[["input_1",0,0]],"output_layers":[["class",0,0]]},"keras_version":"2.15.0","backend":"tensorflow"},"image_data_format":"channels_last","input_shapes":[[8]],"output_shapes":[[1]],"tests":[{"inputs":[{"shape":[8],"values":["y1Yjv3nGkr+UN0W/LTvjvvwEBL8n+M8/exKeP9AXnj4="]}],"outputs":[{"shape":[1],"values":["Ds98Pw=="]}]}],"trainable_params":{"dense":{"weights":["…","…"],"bias":["AUmsPISJszz82v68fm2VO0gIarx0YFk9xtYJveQ1vLwrWx28/nCWuxN7AT2sMOS9JEQqPP3Xpz2nTrm9jXitPP0MBT1jnmY93NI9PUhabb255Eu9QXKWPUweFj2lA2a7I2nIPAIMlD3Y5Gk9Uj0WPO4xiDwet4O9"]},"dense_1":{"weights":["…","…","…","…","…"],"bias":["tUS0PA67cjw5XRo9xiplPbHFojwIe1y8WYuWvdXKV7zmvhu8WBIqvAevND1RVbg8YLHsuZ1JwDxVDa+8fm0svLOYs7xnmxO88XqkvW+surwVpC+8Rt1hvDg3Bju4EVy9uiy/utq37rwufF28ASjhvAYeXbz3qvs8"]},"dense_2":{"weights":["…","…","…","…","…"],"bias":["9lZhOu4vnDsUUhA9SvyVvC+ICry6mGG9drfFPAzc2bwfoIi8XQIkPb3CrbxTAGC8UBEtvbw2pbzFOGO75/J5vNLieDwRWpS80x7GurK6Gr2hbsI8uPc3PUUfTrwMI4y6Ckl0vFJbPbxqv2e96NAuPJT8+rsKQMQ8"]},"class":{"weights":["wRcoPvPi4T2cXJ4+inLJvWlWpryinVa+tkVZPvfQl76sbtm+uUa7Ps0Gt77EpIG+AkdBvnSsqb7V9Ie9sAbkPqCADD6vaaa+bIhHPg0Ni75soqA+LoipPnwd2z6rzQM96SUAPss2xj4s8k2+cNCUvhPL+buzAWU+"],"bias":["9S0pPQ=="]}},"hash":"32f8cdca2df2074f9be2c9539f397ca5bc00ee56e80bdedeb6820786b13f8193"}