{"architecture":{"class_name":"Functional","config":{"name":"functional_1","layers":[{"class_name":"InputLayer","config":{"batch_input_shape":[null,7],"dtype":"float32","sparse":false,"ragged":false,"name":"input_1"},"name":"input_1","inbound_nodes":[]},{"class_name":"Dense","config":{"name":"dense","trainable":true,"dtype":"float32","units":100,"activation":"elu","use_bias":true,"kernel_initializer":{"class_name":"GlorotUniform","config":{"seed":null}},"bias_initializer":{"class_name":"Zeros","config":{}},"kernel_regularizer":null,"bias_regularizer":null,"activity_regularizer":null,"kernel_constraint":null,"bias_constraint":null},"name":"dense","inbound_nodes":[[["input_1",0,0,{}]]]},{"class_name":"Dense","config":{"name":"dense_1","trainable":true,"dtype":"float32","units":100,"activation":"elu","use_bias":true,"kernel_initializer":{"class_name":"GlorotUniform","config":{"seed":null}},"bias_initializer":{"class_name":"Zeros","config":{}},"kernel_regularizer":null,"bias_regularizer":null,"activity_regularizer":null,"kernel_constraint":null,"bias_constraint":null},"name":"dense_1","inbound_nodes":[[["dense",0,0,{}]]]},{"class_name":"Dense","config":{"name":"dense_2","trainable":true,"dtype":"float32","units":100,"activation":"elu","use_bias":true,"kernel_initializer":{"class_name":"GlorotUniform","config":{"seed":null}},"bias_initializer":{"class_name":"Zeros","config":{}},"kernel_regularizer":null,"bias_regularizer":null,"activity_regularizer":null,"kernel_constraint":null,"bias_constraint":null},"name":"dense_2","inbound_nodes":[[["dense_1",0,0,{}]]]},{"class_name":"Dense","config":{"name":"dense_3","trainable":true,"dtype":"float32","units":100,"activation":"elu","use_bias":true,"kernel_initializer":{"class_name":"GlorotUniform","config":{"seed":null}},"bias_initializer":{"class_name":"Zeros","config":{}},"kernel_regularizer":null,"bias_regularizer":null,"activity_regularizer":null,"kernel_constraint":null,"bias_constraint":null},"name":"dense_3","inbound_nodes":[[["dense_2",0,0,{}]]]},{"class_name":"Dense","config":{"name":"class","trainable":true,"dtype":"float32","units":1,"activation":"sigmoid","use_bias":true,"kernel_initializer":{"class_name":"GlorotUniform","config":{"seed":null}},"bias_initializer":{"class_name":"Zeros","config":{}},"kernel_regularizer":null,"bias_regularizer":null,"activity_regularizer":null,"kernel_constraint":null,"bias_constraint":null},"name":"class","inbound_nodes":[[["dense_3",0,0,{}]]]}],"input_layers":[["input_1",0,0]],"output_layers":[["class",0,0]]},"keras_version":"2.8.0","backend":"tensorflow"},"image_data_format":"channels_last","input_shapes":[[7]],"output_shapes":[[1]],"tests":[{"inputs":[{"shape":[7],"values":["NrmQP+x+jj8PxaE/wUB1PspQFr8+UN0+rfD1Pw=="]}],"outputs":[{"shape":[1],"values":["Xl56Pw=="]}]}],"trainable_params":{"dense":{"weights":["…","…","…","…"],"bias":["…"]},"dense_1":{"weights":["…","…","…","…","…","…","…","…","…","…","…","…","…","…","…","…","…","…","…","…","…","…","…","…","…","…","…","…","…","…","…","…","…","…","…","…","…","…","…","…","…","…","…","…","…","…","…","…","…","…","…","…","dIM0vj98/70lG9482Km5veLsJr5GfeQ92mwuvqSg+r2oTh2+ULEEPvs/Bz63j4M9ZAcpPd2ZDr4xYsm9s7HIOw=="],"bias":["…"]},"dense_2":{"weights":["…","…","…","…","…","…","…","…","…","…","…","…","…","…","…","…","…","…","…","…","…","…","…","…","…","…","…","…","…","…","…","…","…","…","…","…","…","…","…","…","…","…","…","…","…","…","…","…","…","…","…","…","KSnNPY5SFj7mEBE+8daqPf9FtD186yo+8jgzPmlXC70QVqS9nHFOPdWhuDy55Li91Q+HO8vNxT3x1gG+W8UCPQ=="],"bias":["…"]},"dense_3":{"weights":["…","…","…","…","…","…","…","…","…","…","…","…","…","…","…","…","…","…","…","…","…","…","…","…","…","…","…","…","…","…","…","…","…","…","…","…","…","…","…","…","…","…","…","…","…","…","…","…","…","…","…","…","bTz4vdbW2b2p4wO+UQAwPlJVKT54tw4+dDYSPgzTMj7Gl2g8/pRrvY6jqL3gLN29vCn1vTYz2b1fS1O9bcuevQ=="],"bias":["…"]},"class":{"weights":["…"],"bias":["MxCNvQ=="]}},"hash":"1ae19a13c6d1e806dd9c1bf94be2b92f2645136c86fabf4fc0f9d30f9d35c47b"}